…
model.add(keras.Input(shape=(28,28,1)))\n","model.add(layers.Conv2D(16,(7,7)))\n","model.add(layers.BatchNormalization(axis=3))\n","model.add(layers.Activation('relu'))\n","model.add(layers.Dropout(0.2))\n","model.add(layers.MaxPooling2D((2,2)))\n","model.summary()"],"execution_count":25,"outputs":[{"output_type":"stream","text":["Model: \"sequential_2\"\n","_________________________________________________________________\n","Layer (type)                 Output Shape              Param #   \n","=================================================================\n","conv2d_4 (Conv2D)            (None, 22, 22, 16)        800       \n","_________________________________________________________________\n","batch_normalization_4 (Batch (None, 22, 22, 16)        64        \n","_________________________________________________________________\n","activation_4 (Activation)    (None, 22, 22, 16)        0         \n","_________________________________________________________________\n","dropout_4 (Dropout)          (None, 22, 22, 16)        0         \n","_________________________________________________________________\n","max_pooling2d_4 (MaxPooling2 (None, 11, 11, 16)        0         \n","=================================================================\n","Total params: 864\n","Trainable params: 832\n","Non-trainable params: 32\n","_________________________________________________________________\n"],"name":"stdout"}]},{"cell_type":"code","metadata":{"trusted":true,"colab":{"base_uri":"https://localhost:8080/"},"id":"u7ZB5cwdSf0N","executionInfo":{"status":"ok","time
…
odel.add(keras.Input(shape=(28,28,1)))\n","model.add(layers.Conv2D(128,(5,5)))\n","model.add(layers.BatchNormalization(axis=3))\n","model.add(layers.Activation('relu'))\n","model.add(layers.Dropout(0.2))\n","model.add(layers.MaxPooling2D((2,2)))\n","model.summary()"],"execution_count":26,"outputs":[{"output_type":"stream","text":["Model: \"sequential_2\"\n","_________________________________________________________________\n","Layer (type)                 Output Shape              Param #   \n","=================================================================\n","conv2d_4 (Conv2D)            (None, 22, 22, 16)        800       \n","_________________________________________________________________\n","batch_normalization_4 (Batch (None, 22, 22, 16)        64        \n","_________________________________________________________________\n","activation_4 (Activation)    (None, 22, 22, 16)        0         \n","_________________________________________________________________\n","dropout_4 (Dropout)          (None, 22, 22, 16)        0         \n","_________________________________________________________________\n","max_pooling2d_4 (MaxPooling2 (None, 11, 11, 16)        0         \n","_________________________________________________________________\n","input_6 (InputLayer)         multiple                  0         \n","_________________________________________________________________\n","conv2d_5 (Conv2D)            (None, 7, 7, 128)         51328     \n","_________________________________________________________________\n","batch_normalization_5 (Batch (None, 7, 7, 128)         512       \n","_________________________________________________________________\n","activation_5 (Activation)    (None, 7, 7, 128)         0         \n","_________________________________________________________________\n","dropout_5 (Dropout)          (None, 7, 7, 128)         0         \n","_________________________________________________________________\n","max_pooling2d_5 (MaxPooling2 (None, 3, 3, 128)         0         \n","=================================================================\n","Total params: 52,704\n","Trainable params: 52,416\n","Non-trainable params: 288\n","_________________________________________________________________\n"],"name":"stdout"}]},{"cell_type":"code","metadata":{"trusted":true,"colab":{"base_uri":"https://localhost:8080/"},"id":"UmxKraPKSf0N","executionInfo":{"status":"ok
…
0,"elapsed":1409,"user":{"displayName":"mateusz opala","photoUrl":"","userId":"03534487029524084148"}},"outputId":"368ceece-4016-4721-8de0-8794d319f99d"},"source":["model.add(layers.Flatten())\n","model.add(layers.Dense(10,activation='softmax'))\n","model.summary()"],"execution_count":27,"outputs":[{"output_type":"stream","text":["Model: \"sequential_2\"\n","_________________________________________________________________\n","Layer (type)                 Output Shape              Param #   \n","=================================================================\n","conv2d_4 (Conv2D)            (None, 22, 22, 16)        800       \n","_________________________________________________________________\n","batch_normalization_4 (Batch (None, 22, 22, 16)        64        \n","_________________________________________________________________\n","activation_4 (Activation)    (None, 22, 22, 16)        0         \n","_________________________________________________________________\n","dropout_4 (Dropout)          (None, 22, 22, 16)        0         \n","_________________________________________________________________\n","max_pooling2d_4 (MaxPooling2 (None, 11, 11, 16)        0         \n","_________________________________________________________________\n","input_6 (InputLayer)         multiple                  0         \n","_________________________________________________________________\n","conv2d_5 (Conv2D)            (None, 7, 7, 128)         51328     \n","_________________________________________________________________\n","batch_normalization_5 (Batch (None, 7, 7, 128)         512       \n","_________________________________________________________________\n","activation_5 (Activation)    (None, 7, 7, 128)         0         \n","_________________________________________________________________\n","dropout_5 (Dropout)          (None, 7, 7, 128)         0         \n","_________________________________________________________________\n","max_pooling2d_5 (MaxPooling2 (None, 3, 3, 128)         0         \n","_________________________________________________________________\n","flatten_2 (Flatten)          (None, 1152)              0         \n","_________________________________________________________________\n","dense_2 (Dense)              (None, 10)                11530     \n","=================================================================\n","Total params: 64,234\n","Trainable params: 63,946\n","Non-trainable params: 288\n","_________________________________________________________________\n"],"name":"stdout"}]},{"cell_type":"code","metadata":{"trusted":true,"id":"ys-wnqHDSf0N","executionInfo":{"status":"ok","timestamp":1605954391811,"user_tz":-60,"elapsed"
…
